PyTorch Model/model_weights.pth (torch, 561857 bytes, 12 tensors)

linear.0.weight f8 [256, 100]
-0.07483414451203521 0.09228687009392289 -0.02714599381295926 0.09090161945272815 -0.047359956601669785 -0.06514760523974131 0.008502094268194873 -0.018259026800694505
-0.0423456666536433 -0.0022210405033918166 -0.06015796249228861 -0.0667202056378182 0.09037775892219972 0.07076873538096354 0.07524683054493243 -0.0628608807300049
-0.10374839460573879 -0.07193776721269056 0.04328929970974129 0.005424498090758935 0.06351577215422134 -0.0768251920052528 -0.013622975476827663 0.11697779546134902
-0.04751756671204927 -0.011030842922625348 -0.054162808867137986 -0.07217190972139888 0.03181867828833529 -0.023734515993900925 0.058749553371721996 0.07826987492693732
-0.10823803179027272 0.026264848645188507 0.0743825218754209 -0.018584580715057433 0.08371047794446751 0.09055884114868129 0.029461194706922846 -0.02482317074781592
0.033940921155923315 0.030967298154691444 -0.14696147870131113 -0.14467638354632575 -0.06864429059884931 -0.07983781558082183 -0.09743735520991978 0.04355236431058538
-0.09250146793949951 0.044149708555712125 0.014969838529417695 -0.010698721232800634 -0.011871401822871417 -0.0016059847062347607 -0.020874338825781498 -0.04553012437571319
0.03701054609303708 -0.0743469818741373 0.02734123465956679 -0.1303313638465549 -0.11300666804751214 -0.014470380443169464 -0.0833772186013807 -0.03947480675145984
-0.0816075371781154 -0.011723938848565527 0.05738746049403114 -0.03192398937542737 -0.0893427755066012 0.06865277927296395 0.023195910986261704 -0.025075735586787874
0.047724619235353795 -0.043766092447352294 0.11678046502248783 0.047306891844427344 0.06681036288707735 0.03622666905095168 0.05497637029472132 0.03003685112552257
-0.03466101731580783 0.02244037750197743 -0.08634658485053927 0.06726707272903505 -0.061658487330236315 -0.022468734653395616 -0.023076409913320658 0.07419900600790087
0.018290128281817086 -0.1174236961411566 -0.05072088756604581 -0.012787013697555265 0.005331884679701976 -0.02323833666483803 -0.04617906681971923 0.01643799358898518
-0.07005096121050017 -0.07633351554606839 0.04015872037450146 0.08605040669071112 -0.052433946447913105 0.07669037854303232 0.05593972786258363 0.07971012149020074
0.0846431588594934 0.009631878484746484 -0.02645967366646671 -0.09335015024227844 0.06051583116474779 0.08642813726835316 -0.009554613789823687 -0.05359223242769534
0.03454383098677743 -0.048296971509203514 -0.021564338388493677 -0.06129302824131272 -0.05534846776964468 0.052809013008189666 0.017571976865580295 0.040630410175189174
-0.04291913929740883 0.020890289991757363 0.027501323421816246 0.03880746495102524 -0.0756238168270815 0.06249245817804848 0.05190813236741122 0.05731195830077422
0.06565958689706196 0.08274636804735787 -0.0898581608305661 -0.08516263642478347 -0.08680818106149688 0.014596201347146431 0.024373338728553438 -0.10269539079529612
-0.10090554591172893 0.06166588003460631 0.037954912131031415 0.05664370286504083 -0.040058908189554585 -0.07814589968064167 -0.05768864876139812 -0.10782221427262995
-0.10517150184508217 0.05262336073504185 -0.053978154055156276 -0.06126957264741242 0.08865711652895746 0.06305332580767148 0.04947282042009948 -0.08519411923776027
-0.06747261369798842 0.03668922698089097 0.06315383195465205 0.08388450655734413 0.01221888475526269 0.08460172236245699 0.034530502438022116 0.07581110418170332
-0.025318513723760133 -0.04528575367108058 -0.007157132278979682 -0.006637054349666319 -0.11090091425964047 -0.016967412353915454 0.07585015411390779 0.0831081020148323
-0.0012335560949650747 -0.05701443854060098 -0.003606286949514931 -0.011584675152904242 -0.0764998871414559 -0.09854409953065457 -0.00044099233700055287 -0.09248240074638131
-0.053857731852844946 -0.01644239773350437 0.022761028741789556 0.061491003793159346 -0.09427298225555386 -0.06250387619230473 -0.03535239110910295 -0.08948341371466767
-0.018145519305314436 0.07787935676832719 0.016149166893760326 -0.019910537057613767 -0.0975137023237055 0.08271472330513492 0.009194408218307996 0.08083117993102172
0.009969334807262 -0.10704273034010445 -0.017175217551164773 0.008973710543685984 0.04134101515994241 0.07801925403154783 -0.000966109719402418 0.02407161555527767
0.02218209482759479 0.05021337448056099 0.07178905139599599 -0.041581090966861904 -0.013633496536048638 -0.05899467546871869 -0.11078777425175186 -0.10686218666136149
-0.10953865723794573 0.03321192004671304 0.12784855140071194 0.06930430410627587 0.06578482108375523 -0.015176822235935472 0.12256944880853315 0.10556526749964866
0.0002811392986538071 0.03002435165627192 0.026208773361754523 -0.11589252541393595 -0.062157998645172824 -0.11363960570111652 0.007960663539935216 -0.09194821369502248
0.04433473343075966 -0.0362628363034592 0.12325244141938832 -0.04374615716477145 0.11618079973272874 0.1236991678946456 0.006225938336208675 0.1078175483679059
0.0346860225910936 0.03660775444833192 0.07988551925816215 -0.07646987597397265 -0.04712928040719646 0.07536380353326633 -0.03364789489140349 0.05407640682445509
-0.11984170066051499 -0.045497220882271656 -0.10028326117716495 0.0388612039905358 -0.09047208027853927 -0.027500034263965873 0.00047084486386321874 -0.019916274891734472
0.07958415608619021 0.12321986094882793 0.08013791936919153 -0.02012530468427772 0.14464538972569224 0.10137971829563122 0.053503160145465786 0.12184297191652016
00000000: faa6 4d9b 5428 b3bf 4852 e7c0 1ca0 b73f
00000010: 4789 93ce 28cc 9bbf 92f1 b31a 5445 b73f
00000020: 5d01 7d71 903f a8bf 32db ea71 83ad b0bf
00000030: a19f a2c6 8b69 813f ebf2 dc8b 7eb2 92bf
00000040: e736 cfca 54ae a5bf 54b4 670a dc31 62bf
00000050: e82a ff42 06cd aebf 0f63 324d 9314 b1bf
00000060: 734b db2e ff22 b73f 4a5f 0a5c e61d b23f
00000070: 8971 5154 6043 b33f 74e1 ee92 a617 b0bf
00000080: 461a d839 418f babf ab98 8675 836a b2bf
00000090: 1348 0add 032a a63f e835 5a9e ff37 763f
000000a0: c9bc 2ed4 9142 b03f 35e6 2bd7 d0aa b3bf
000000b0: 3c6f 2dd1 5ce6 8bbf 195b ddbd 41f2 bd3f
000000c0: 390a 07f6 3854 a8bf ffc6 ccac 5697 86bf
000000d0: c1da 7c49 3abb abbf 517a f1b7 db79 b2bf
000000e0: 10fa 4cad 894a a03f d2b7 eb67 dc4d 98bf
000000f0: c8b5 c5e4 6b14 ae3f a4bd 1299 7e09 b43f
00000100: 42fe b8d6 7cb5 bbbf 5ca5 dc27 2ce5 9a3f
00000110: f553 d9a2 bb0a b33f 6430 8619 d607 93bf
00000120: e0a0 1ac5 0c6e b53f 10e5 183d dd2e b73f
00000130: d7bc 114f 132b 9e3f 7ef8 2dca 3e6b 99bf
00000140: 74bb b854 b460 a13f dc8e 4733 e4b5 9f3f
00000150: 8f9f 653c a2cf c2bf fde1 ea77 c184 c2bf
00000160: 9dde 2d17 ac92 b1bf 7959 e746 4070 b4bf
00000170: 160c 098e a7f1 b8bf 0d40 c1d8 7e4c a63f
00000180: 1ed4 a11b 2dae b7bf a4da bf64 ca9a a63f
00000190: 0331 48b7 81a8 8e3f e062 6e0e 36e9 85bf
000001a0: 92fc b194 0850 88bf 5646 a2f2 fc4f 5abf
000001b0: c254 542a 1560 95bf 485e 5a76 b94f a7bf
000001c0: 8c44 27da 0bf3 a23f 5caa b45f 6708 b3bf
000001d0: 92c8 c732 57ff 9b3f 8998 aeb8 b2ae c0bf
000001e0: 5076 7e47 01ee bcbf a8db 1c96 a5a2 8dbf
000001f0: e8d6 1f9b 3558 b5bf 9ce1 06b8 0a36 a4bf
00000200: 0780 4947 3be4 b4bf 18a9 7a6f b802 88bf
00000210: 3672 0ba4 e361 ad3f 4c8f a654 5758 a0bf
00000220: f149 ef0a 2bdf b6bf 56c3 c181 3a93 b13f
00000230: da01 593c abc0 973f bdd6 1221 74ad 99bf
00000240: 45e8 a87d 5c6f a83f cf5d 785f 8268 a6bf
00000250: 5750 1516 53e5 bd3f 6bc7 b1e2 9b38 a83f
00000260: 9346 a2e3 7b1a b13f 893a a24d 4d8c a23f
00000270: 2bee efe0 dc25 ac3f a127 09f5 fac1 9e3f
00000280: 4e8d a2bf 16bf a1bf b46d ec3d 9cfa 963f
00000290: 39ea 0d4e cf1a b6bf 2507 7835 6a38 b13f
000002a0: 1759 3585 b391 afbf c349 1342 0b02 97bf
000002b0: ef15 8ca7 57a1 97bf b91b 33c0 b4fe b23f
000002c0: 807d 3dbb a5ba 923f 33a3 b3b6 7a0f bebf
000002d0: 17f9 a392 16f8 a9bf a9f1 27ed 1330 8abf
000002e0: 47b0 34e5 e2d6 753f aca6 f45f cacb 97bf
000002f0: 9840 805b c8a4 a7bf 1196 8113 1fd5 903f
00000300: 9ad4 731b dcee b1bf 19ec dbe0 978a b3bf
00000310: 17bd 500d af8f a43f 644a 8b42 6607 b63f
00000320: 4054 634a 9fd8 aabf 6a9b c20b fba1 b33f
00000330: 5312 6fcb 21a4 ac3f d0e9 f5ec e167 b43f
00000340: 43b4 218f 2cab b53f 156f bad8 e0b9 833f
00000350: 1ac1 3da4 3e18 9bbf 9005 5ea2 cbe5 b7bf
00000360: c056 7c57 eefb ae3f 1693 0587 2720 b63f
00000370: 7b8f 068e 5e91 83bf 3873 31eb 7070 abbf
00000380: 07c8 bba0 baaf a13f 8d78 4172 61ba a8bf
00000390: dac7 8d40 f614 96bf 28da 89bf cc61 afbf
000003a0: 769e e865 a256 acbf d5c1 9b6f c809 ab3f
000003b0: 99dd da67 63fe 913f 8cdb d955 82cd a43f
000003c0: 1a47 4f57 7ff9 a5bf 0433 46a1 4364 953f
000003d0: c90f c692 4e29 9c3f db52 9c71 92de a33f
000003e0: ae2d 121c 155c b3bf ae23 3ef0 02ff af3f
000003f0: 7235 d4e5 b393 aa3f 06a1 2435 fe57 ad3f
00000400: cf49 6412 11cf b03f 6d4d a0b0 dd2e b53f
00000410: f9c5 0bc6 f100 b7bf fe1b 49f2 37cd b5bf
00000420: 3e33 af9a 0f39 b6bf b360 74fb 9ce4 8d3f
00000430: 0912 ef12 53f5 983f b16d eac0 3e4a babf
00000440: ee07 ad23 f2d4 b9bf d62d 0e94 ab92 af3f
00000450: 2092 a684 d36e a33f 5fcd a846 6700 ad3f
00000460: 5eda 2ce9 9982 a4bf e0e1 71a3 5e01 b4bf
00000470: 80af 8fd7 5d89 adbf e04f 1594 3c9a bbbf
00000480: 3855 e500 85ec babf b5a8 b9fa 72f1 aa3f
00000490: a10e bb4c 06a3 abbf 8364 85b5 b95e afbf
000004a0: 37ae 0c98 3bb2 b63f bc7b 3f44 4324 b03f
000004b0: ef8b 7d63 8054 a93f 6c0d f023 48cf b5bf
000004c0: 6160 359d e245 b1bf 8434 ff2b eec8 a23f
000004d0: 5ec0 dc7a d92a b03f 4f0d 4e7c 7479 b53f
000004e0: 0bee 56f3 3606 893f f765 bb5e 75a8 b53f
000004f0: 0d1b 5f65 fbad a13f 0f52 2245 5b68 b33f
00000500: 3b1f b5b1 18ed 99bf d2e7 fbbd b12f a7bf
00000510: 3f4e 2411 cc50 7dbf f73a fab5 742f 7bbf
00000520: c276 d797 0064 bcbf cc99 a1c4 e75f 91bf
00000530: ddd7 506b ea6a b33f bfb3 2f94 9246 b53f
00000540: 4265 7bc5 e835 54bf 9405 dd19 ff30 adbf
00000550: 0dd5 4290 ee8a 6dbf e501 55c7 b4b9 87bf
00000560: 1d95 6b21 7f95 b3bf 90ab b2a4 2f3a b9bf
00000570: f2ce 4aaa 9fe6 3cbf 3c49 a936 edac b7bf
00000580: 93b0 e399 3d93 abbf f105 22a2 46d6 90bf
00000590: 26f7 46c8 aa4e 973f c664 94b4 bf7b af3f
000005a0: 1c1a af2f 4622 b8bf b382 1e08 4100 b0bf
000005b0: 8349 4c67 b519 a2bf 145e 708f 62e8 b6bf
000005c0: 8fe8 f02f bd94 92bf c47d 5aca e6ef b33f
000005d0: bd56 aa3e 6889 903f f471 0886 6d63 94bf
000005e0: d966 6472 a8f6 b8bf 3545 7ec7 ca2c b53f
000005f0: 0f64 d494 84d4 823f 2f03 4d2a 5ab1 b43f
00000600: 6e36 ae77 cd6a 843f eed5 1502 2767 bbbf
00000610: 385a bc56 6196 91bf 72a1 780a cf60 823f
00000620: 55d7 3048 a62a a53f ae18 86e0 11f9 b33f
00000630: f45d 18d3 50a8 4fbf 9686 49c6 3aa6 983f
00000640: 3a7b 5d2f e7b6 963f b57e 6e42 91b5 a93f
00000650: 0fe8 f46b c460 b23f 3f5a abe3 1d4a a5bf
00000660: cc08 05ee e0eb 8bbf 9b74 8dd3 8c34 aebf
00000670: 4539 356b 965c bcbf 80bc e3fc 515b bbbf
00000680: 4e17 7cb6 b90a bcbf 7241 e01c 2701 a13f
00000690: 40b3 8d61 575d c03f 39c6 9b47 edbd b13f
000006a0: adc0 2027 46d7 b03f a0cd 4899 0615 8fbf
000006b0: d013 1f1e b660 bf3f c725 814b 5306 bb3f
000006c0: d007 e517 bc6c 323f bd06 ca21 b4be 9e3f
000006d0: ddfa d301 79d6 9a3f bbf2 80ee 21ab bdbf
000006e0: 044e bb56 2cd3 afbf e741 0436 7c17 bdbf
000006f0: 11c5 772c ae4d 803f e0e8 be0a eb89 b7bf
00000700: 6ff0 52cc 0ab3 a63f 0595 f7df 0a91 a2bf
00000710: d265 0cd5 788d bf3f 7b5d b274 e565 a6bf
00000720: 3673 465f 06be bd3f e660 a6a8 bfaa bf3f
00000730: 13a5 a798 5e80 793f 57d0 2c4c ee99 bb3f
00000740: b86a 50c9 5dc2 a13f 486b 4568 40be a23f
00000750: da45 a39c 6073 b43f b4f8 6fa0 8793 b3bf
00000760: 33db 103c 5421 a8bf 9840 7acf 0a4b b33f
00000770: cc90 4600 4c3a a1bf e9aa 971d e7af ab3f
00000780: ddaf 0819 f2ad bebf f919 7f67 694b a7bf
00000790: 2397 17ef 29ac b9bf 3cf0 71a0 9de5 a33f
000007a0: 7156 ffa1 2d29 b7bf 25e0 350f f828 9cbf
000007b0: 433b b24a 77db 3e3f efc7 4595 ee64 94bf
000007c0: 9a81 ab93 a05f b43f 9d2d fe38 568b bf3f
000007d0: 9d33 dc2e eb83 b43f b697 c355 ba9b 94bf
000007e0: 7ecb 3179 bd83 c23f aab3 8e6e 05f4 b93f
000007f0: f666 1d26 c464 ab3f a0ff a0db 1931 bf3f

linear.0.bias f8 [256]
0.09834187437832444 -0.009537078824516713 -0.09548233683885589 -0.03245521813638745 0.19062531849352868 0.12560246578489198 -0.009205495788059907 0.14745352823441918
0.019463254459522565 -0.002090264970834277 0.20921187364378815 0.138306870565975 0.16423649931378037 0.028949440370090073 -0.06240713636533717 -0.07718721406498157
0.0873014274395897 -0.0661820932914411 0.06403395504738695 -0.0655727179365281 0.0989167216643662 0.07175732534847439 -0.0036612760234169006 -0.10045643986878364
0.013758448405708503 0.045574360698933315 -0.08584733674678678 -0.013876516845782262 0.043166905080263454 -0.03876812028374822 -0.07381915980152406 -0.08960540670610075
0.004709478225311225 -0.06587798046380793 0.10376517560982779 -0.023098543464193457 -0.01470381185932925 -0.017367045257215726 0.05070436986809436 0.02568539004893903
-0.04078208975512237 -0.02951869955851831 -0.07086984293368906 -0.0940893615065741 0.05985941133369702 -0.04913710513002113 -0.021697589600756562 0.015448994241403509
0.07893287758301712 -0.07833514030822739 0.06489950388594803 -0.0391355307851884 0.004350960486706503 0.13038297922311864 0.0020009775188119102 0.005796024079178893
-0.05608397652132078 -0.0384321253759156 0.028125413069691973 0.04354996869839242 -0.06420814378821474 0.016582511849390007 0.084810615552647 0.002655342593350652
-0.010053619055179016 -0.08467100565023564 0.23989972790488429 0.08187277477690788 -0.010899391369948675 0.06242798494861492 0.10616925074606634 -0.06462713447880025
-0.0495970165214003 0.011598307077330184 -0.047092022034126026 -0.06543576030595205 -0.06398015274445387 0.09896152269899537 -0.12589564340868875 0.0011185590594790444
-0.020735955143919443 0.050319433929267895 -0.025321617113257994 -0.04353574293734136 0.03429061092657891 -0.05204515072589988 -0.006750871162837192 0.11507908459461462
0.02147459623438252 0.011657369201350245 -0.026673696159441818 0.07138201658043318 -0.12704902957948633 -0.048893067050007136 0.07978864706007653 -0.07951194583994414
0.03750145278565441 0.015093186715699806 -0.13193786449157777 -0.08578845528109288 -0.07300171492623275 0.03239345523928204 -0.04934045597483691 -0.035907901187767446
-0.0874745891300451 -0.023618304001574556 0.27709423339391215 -0.011699514980843649 0.002176225062557635 0.010801934732892695 0.22810430992670344 -0.05518213749196892
0.003940967057186503 -0.06811834348807647 -0.06037343631193077 0.04836840847851871 0.07409671877705737 0.07415059179013833 0.023909248009667552 0.015837248250644934
-0.0720431034944881 0.27964562321158315 -0.10073778893579872 -0.09262984053227416 0.23594670128861148 0.05126737714496196 0.056107310281768484 -0.09589117944386791
-0.08357463317500696 -0.05035846797139525 -0.08816885314285275 0.05006527638943535 -0.03147063796328414 -0.023132830814812877 0.0954693139320671 0.11058712736126852
-0.07426462353485572 0.17635644255982497 0.2837650174298753 0.03812357912890055 0.05324756494584612 0.016407422945410102 -0.04230464140043085 -0.08014946624288943
0.003661451424649379 -0.09057092527102141 0.07447599037659001 -0.08122824298089885 0.004414595694860404 0.06615695436986765 -0.08999003492342529 0.2313689580003917
0.0861427386046866 -0.07000795381447511 -0.07397634071936339 -0.06617251057369324 0.23952804597774374 -0.021824982653221678 0.182858679804369 -0.08532412098880938
-0.09789101211753205 0.11494534123370695 0.1357399321439559 0.042555159048704744 -0.005908523676597157 -0.010659530851719317 -0.020635229337488 0.1089728755332884
0.013637907888923502 0.07020999242894861 0.0344856901064756 -0.05083520042964045 0.07200996050284325 0.08341818208580945 0.09631801484069066 0.03262841019270017
0.16148302066125356 -0.02606308596192692 0.05138184820403031 0.12152744149523913 0.06101144250357624 0.01309201735304022 -0.07149986990143073 -0.09084489906929687
-0.03975300982339106 -0.023524693304429117 0.007294383174616612 0.0875792624950232 0.007888169642753934 0.06583974320147916 0.11331037860791245 0.10760945394405635
0.23620881318857526 0.043896988348710655 0.002647766660473359 0.08541792147158007 -0.0704230116925657 0.011772918709656249 -0.06272752835195203 -0.06426436301608843
0.07753093522030852 -0.05385340681545712 -0.05686081729394705 0.054246451778045664 0.16556291097617243 0.1765787648132324 -0.05380022185615573 -0.09879803909226603
-0.06317984768239726 -0.11439469101033593 -0.06247276240648597 0.035603461388201495 -0.04189666592751876 0.1045445873932861 -0.03157591843072917 -0.03739551466814059
0.14930696382607986 0.030073753137580293 -0.08680741058970484 0.07061508310581696 0.05085133161319257 0.06399569773808089 0.04828013615591014 0.05757629295962429
0.08367341889144761 0.012738952429138228 0.22070861234353734 -0.03414213390966067 0.20254775564493444 0.12684563971113488 -0.08066209599634927 -0.05050601810071659
-0.005259982850972957 0.07546448661581036 -0.08007691101974561 0.1416023177193503 0.0303338126299763 0.19814358408195407 0.043013869367303365 -0.07877219312838495
-0.016392803334172285 -0.06819109895605006 0.18832680341989858 0.028527389869436308 0.05917408330074936 -0.049675333395030774 -0.09346556456083609 0.23373578976311277
0.015536274485065303 -0.005339369761553563 -0.05696163057502479 0.06311135817083725 -0.01382815418858507 -0.009394498873696911 -0.09406017784193298 0.08692459033935906
00000000: 2141 48de ee2c b93f 4294 340d 2d88 83bf
00000010: f98b 11ca 8771 b8bf d6ed f568 f89d a0bf
00000020: af11 5c12 6966 c83f b8e9 6bd9 bd13 c03f
00000030: a251 d3ba 54da 82bf 992b b9d8 c1df c23f
00000040: be6e 82e5 2cee 933f b415 1276 9a1f 61bf
00000050: fd12 9e65 74c7 ca3f c34c f21e 0ab4 c13f
00000060: 005d ae9c b305 c53f 8316 820e eca4 9d3f
00000070: 07c8 7303 d4f3 afbf 1b15 1490 8ac2 b3bf
00000080: 8945 bfe7 6259 b63f d97e 4446 4ff1 b0bf
00000090: 6f16 c37e 8764 b03f a916 0ca7 5fc9 b0bf
000000a0: eb73 9334 9b52 b93f cbc0 9e25 b05e b23f
000000b0: c5d1 0799 40fe 6dbf 4ab5 e863 83b7 b9bf
000000c0: 81dc 91af 632d 8c3f 95de 79c9 8555 a73f
000000d0: a7b1 c64f 17fa b5bf b4bc 4790 4a6b 8cbf
000000e0: 82b4 2dfb f819 a63f e2ff 7d41 6ad9 a3bf
000000f0: 2e6e 2afd cfe5 b2bf 91f4 5843 61f0 b6bf
00000100: 19cd 57ef 3e4a 733f 635b 9e1b 61dd b0bf
00000110: 6839 b5c3 5a90 ba3f b747 0e03 25a7 97bf
00000120: 8cb4 7f38 081d 8ebf d2ae a1ad aac8 91bf
00000130: b20c b254 ecf5 a93f ea14 fb58 454d 9a3f
00000140: e785 85db 63e1 a4bf 2cab e564 263a 9ebf
00000150: fa3f aca9 8624 b2bf 707f 928a 3d16 b8bf
00000160: e573 128c e4a5 ae3f 826b 1ba7 7f28 a9bf
00000170: 4df9 f296 e437 96bf e4f0 2ee8 b8a3 8f3f
00000180: ce58 ccef f134 b43f 465c c091 c50d b4bf
00000190: 5a7e b7fe 409d b03f 2200 ab81 9209 a4bf
000001a0: 290b f20f 50d2 713f a2f2 dbb3 63b0 c03f
000001b0: 1e44 1ba0 5a64 603f 7cd4 de5d 92bd 773f
000001c0: 7d37 faf9 09b7 acbf b6ed 3523 60ad a3bf
000001d0: 8384 4885 e8cc 9c3f 9c53 9a76 2e4c a63f
000001e0: 320e b5e5 f16f b0bf eb8c 5088 01fb 903f
000001f0: b7f9 2604 26b6 b53f 01c6 2333 a8c0 653f
00000200: 9132 63e8 fd96 84bf e6eb 2fc0 ffac b5bf
00000210: 02dc d5c6 08b5 ce3f ee7e 193a 9df5 b43f
00000220: 0785 d78b 6b52 86bf 2341 6b93 8ff6 af3f
00000230: d290 cb73 e82d bb3f bc48 0565 678b b0bf
00000240: 578e e0b7 c764 a9bf 6754 b06c dac0 873f
00000250: a502 140d 721c a8bf ecc1 80e2 65c0 b0bf
00000260: 5e69 a1d7 0061 b0bf c7f6 8dd7 8a55 b93f
00000270: dc18 9333 591d c0bf de16 10a5 9353 523f
00000280: bb1f c764 ce3b 95bf 26ac 2806 78c3 a93f
00000290: c579 88f5 e8ed 99bf 88f2 3e20 514a a6bf
000002a0: eea1 faf8 898e a13f 80f6 9078 a9a5 aabf
000002b0: ce83 d22d cda6 7bbf c398 c9a8 d275 bd3f
000002c0: 3efe 15c2 6ffd 953f a14c d19b d1df 873f
000002d0: 0048 ac72 5950 9bbf 1749 bc82 1746 b23f
000002e0: ae26 8481 2443 c0bf 9a3a f617 8308 a9bf
000002f0: cb11 b75d 076d b43f 381d 0617 e55a b4bf
00000300: aea3 88f2 6333 a33f 7cd9 b03a 2de9 8e3f
00000310: 4536 8c06 57e3 c0bf c680 ce71 3bf6 b5bf
00000320: 50fb 288a 3db0 b2bf 2edd b6fd df95 a03f
00000330: bc34 90f9 2643 a9bf c2f6 893a 8562 a2bf
00000340: a669 8b13 bc64 b6bf 9151 188d 652f 98bf
00000350: 2092 9573 e9bb d13f 7f37 c651 eaf5 87bf
00000360: cc11 1eef dfd3 613f fb57 4a23 531f 863f
00000370: 8e1d 9ba3 8532 cd3f 57e8 b347 d540 acbf
00000380: 89f0 004a 6724 703f cafa 8929 3470 b1bf
00000390: f985 035d 44e9 aebf 1a4d 2679 bec3 a83f
000003a0: 406c e3a7 00f8 b23f 8cba b77e 88fb b23f
000003b0: e409 1879 aa7b 983f a43c 2ebd a337 903f
000003c0: 6b42 69b5 6a71 b2bf 5073 8ac1 b6e5 d13f
000003d0: ed5a f3a4 f3c9 b9bf a645 b8d7 96b6 b7bf
000003e0: 031c d162 8033 ce3f 2ced 60b8 b73f aa3f
000003f0: ab14 74ed 18ba ac3f 0eb0 af07 538c b8bf
00000400: b408 43ac 2565 b5bf 9711 07ca 95c8 a9bf
00000410: ba3d c6e4 3b92 b6bf be01 84e9 27a2 a93f
00000420: c851 ac61 eb1c a0bf 000c 41ff 21b0 97bf
00000430: e51a 1c4d ad70 b83f 680f 601f 704f bc3f
00000440: 26fb 54a1 0103 b3bf 70de 9d10 d992 c63f
00000450: 430d 67bf 3429 d23f 4454 210b ef84 a33f
00000460: 5c6e 11cc 4343 ab3f c444 d983 1bcd 903f
00000470: db55 9136 f4a8 a5bf d018 4ee8 ac84 b4bf
00000480: 3b0c fec3 9efe 6d3f 51eb 01fa a72f b7bf
00000490: b731 01c7 db10 b33f 0350 1dc7 5fcb b4bf
000004a0: b6dc 2602 0a15 723f 6eea 6b83 a9ef b03f
000004b0: 4146 f640 9609 b7bf 80ec f57d 7f9d cd3f
000004c0: 4a52 1855 730d b63f 10d2 1790 0aec b1bf
000004d0: 5d42 110c 1df0 b2bf f1e7 ce80 aef0 b0bf
000004e0: 2e7f f9e1 daa8 ce3f 2ce8 ecca 4959 96bf
000004f0: 0956 c6c8 e967 c73f 51f6 3435 cdd7 b5bf
00000500: e1fc 9da7 620f b9bf 1224 6dd1 0e6d bd3f
00000510: 02e7 a814 ed5f c13f dcd0 c730 cac9 a53f
00000520: b688 563f 8933 78bf b6d1 3003 aad4 85bf
00000530: ec91 99cc 6621 95bf 9109 9178 a5e5 bb3f
00000540: 8446 f302 31ee 8b3f a5b1 5535 48f9 b13f
00000550: 3de6 5fbe 1ba8 a13f 276d a946 1207 aabf
00000560: 1091 58a9 3e6f b23f 7a48 f3db e45a b53f
00000570: 06a4 c123 4ca8 b83f 0670 65c5 abb4 a03f
00000580: 5db8 4cc2 79ab c43f d274 5b17 48b0 9abf
00000590: c9e7 49bb b84e aa3f 0be2 c922 6c1c bf3f
000005a0: 4d23 784c e43c af3f 00b4 f5d2 fccf 8a3f
000005b0: 2618 e5c2 d04d b2bf 3bd4 827e 9c41 b7bf
000005c0: f5d2 37aa 815a a4bf 0b56 9071 db16 98bf
000005d0: fd1c df12 b7e0 7d3f 1553 3934 986b b63f
000005e0: f09e 2035 ac27 803f ebcf d397 dfda b03f
000005f0: c519 6bb2 e801 bd3f ac1d 6e0d 4b8c bb3f
00000600: f500 d623 173c ce3f 8a82 b382 aa79 a63f
00000610: af7f dae6 c4b0 653f a575 36eb f2dd b53f
00000620: 30fb 1a14 3e07 b2bf 8307 b166 661c 883f
00000630: b69e d44a e90e b0bf a2ce 7319 a173 b0bf
00000640: b813 333f 11d9 b33f 8de4 197a ac92 abbf
00000650: 3915 676d dc1c adbf 411a 9fe0 30c6 ab3f
00000660: 465f 095c 2a31 c53f 7f3c 050a 229a c63f
00000670: 1f8b c7e2 b38b abbf 106a cf0a d44a b9bf
00000680: 90e9 8ff3 8d2c b0bf ffb4 b970 f848 bdbf
00000690: f86f da0e 6efc afbf 83cd 92ec 9d3a a23f
000006a0: f5b4 f0d3 7a73 a5bf 59f6 d31f 6fc3 ba3f
000006b0: 2296 0002 b82a a0bf bc93 0841 8125 a3bf
000006c0: 4b5a 5997 7d1c c33f b989 c668 a7cb 9e3f
000006d0: 8681 88ad 0239 b6bf de36 8b80 d413 b23f
000006e0: 7332 798c 2f09 aa3f 80a8 dea4 0562 b03f
000006f0: 3710 ac8b 2cb8 a83f 4fb0 92ce a37a ad3f
00000700: 2eeb ae05 9f6b b53f b32e 8c40 e116 8a3f
00000710: 3003 fb07 2e40 cc3f ac83 1de9 137b a1bf
00000720: c8c4 2fb9 15ed c93f fa89 1959 7a3c c03f
00000730: 1cc5 5468 45a6 b4bf 58ce fcbf ecdb a9bf
00000740: 02c1 28e5 7d8b 75bf d53a 06fe a351 b33f
00000750: 2b98 fea1 eb7f b4bf 853a d255 0620 c23f
00000760: edbf d5b4 d30f 9f3f f7a8 c5da c45c c93f
00000770: d4f9 69f4 e905 a63f 7313 5219 6a2a b4bf
00000780: 0812 d768 46c9 90bf 3b00 e5cb f874 b1bf
00000790: 1f08 d3ba 171b c83f 8e2d 1eba 4836 9d3f
000007a0: b051 18c1 104c ae3f b8f8 b298 0b6f a9bf
000007b0: a749 17f7 5bed b7bf 7af9 77ea 0deb cd3f
000007c0: ec30 8576 7bd1 8f3f ec2d 1d28 bcde 75bf
000007d0: 30a4 e428 132a adbf 4992 59e3 1028 b03f
000007e0: be3a 0870 ef51 8cbf fa10 664b 6c3d 83bf
000007f0: 3fe2 afeb 5314 b8bf 68ca b9a0 b040 b63f

linear.2.weight f8 [128, 256]
-0.042863633626352746 -0.0572650171708002 0.036988947912833366 0.029078906788817898 0.00895956854747456 0.03433491949767662 0.03207232694959971 0.0034745184553464253
-0.0012244494661350829 0.015362096241159334 -0.01768965628823816 -0.0345843314563277 -0.044744177540174186 -0.05109187757866396 -0.05582169168430618 0.024798649887893612
0.0043333167016515834 -0.022219396732286616 -0.029492926230288822 0.01534970201350571 -0.020324789158730636 -0.015135476619304802 -0.011457149227009585 -0.023500226864812134
-0.015194576054335936 0.030527393589634175 0.04973390769291565 0.05471378783689593 0.01349426956701527 0.02643993025572079 0.05097141738853475 -0.04262377290652033
-0.0038401742668854786 -0.018383433824405344 -0.017717656460869043 0.018361152361638794 -0.015536252979552075 0.02204102319589712 -0.03985312792132144 -0.048390324814082515
-0.015007152239884828 -0.04096986907681737 -0.04883737071580427 -0.022619873216096934 0.0028216260241565962 0.04366180605388413 -0.02540635211813281 0.007557154350634178
-0.02417805237691297 -0.022049547458481145 0.024470066537803238 -0.008605293506375584 0.04774800270672389 -0.00874147711409993 -0.03416707714081071 -0.061103761394633874
-0.00229685898952055 -0.027694750253961047 0.03357649382871043 0.00303798994595891 -0.02657446130158939 -0.06024055350166402 -0.05181873405783715 -0.01386746676473001
-0.024982910438577265 -0.0481154652715619 0.01781536133410064 -0.01645932358704056 -0.004655205147173249 -0.008641579309896808 -0.009874390621149663 0.01156145005023697
0.0002778520446948575 -0.05157805960226045 0.05868839327604797 -0.014283342349119406 -0.019077990703138457 -0.0319520391595286 -0.0568001197689619 0.06376588751979705
0.03372535881440056 -0.057831042258993645 -0.020057804526460866 -0.03749782111204399 0.023330956804807797 0.034440256087508156 0.056464489396356676 -0.008957032062370134
-0.0016226138603781938 -0.05926307361629962 0.01273836988545047 0.041325955922587705 -0.010857791536302312 -0.04942105226177187 0.03453817746812906 -0.060316826968395854
-0.03641166835546752 -0.011389823180655014 0.023323338255717557 0.03877642949934097 0.04141979390596741 -0.028907276040191894 -0.056332512596836484 -0.05473402631406101
-0.06202212990473344 0.0055327202600595465 0.01304835891640214 -0.030497978999956914 -0.004685939866572968 0.02133893376352875 0.04693488703933226 1.6920457887120755e-06
0.06299261451877212 0.046635637760384846 -0.039030441106030184 -0.004437315279712392 0.00014532906796431205 0.045038747999858596 -0.05804802353974094 0.0003996142552333096
0.033317949845719515 -0.022270042041884375 -0.06142767332597045 0.033376959913152274 0.06367268477288927 0.06470399718982975 -0.032842335630643094 0.051170087570422434
-0.004220617940198603 -0.042058213156534706 0.059078358480059094 0.03939961804985178 -0.03143352932395039 -0.007298637292071485 -0.04663491678194113 0.0021021099406688315
-0.058268556931995966 -0.05395864305148091 -0.019147385182336513 -0.04483407753872741 0.06096166953006949 -0.05205123735430764 -0.03629394690674728 0.027511850224609165
-0.02718850400486132 0.0020728561178298952 0.06210154971522865 0.020707788057431155 -0.025610859718959492 0.005637912799017992 0.02206157585161749 0.033077029431774874
-0.0366130647409985 0.054685136082894166 0.05053532788598328 -0.004191297093112309 -0.040717771753205845 -0.05881338733877215 -0.039452359630988774 0.016063516287696537
-0.0232619521785923 -0.02542541734050823 -0.058881711724665504 -0.034451220600839653 -0.02714359414024615 0.027591050451143642 -0.036755031508253364 0.05368081894102945
-0.02271335287665355 -0.04756794090631715 0.006867912083755851 0.060646031501077294 -0.04679957307194776 -0.05299911848367035 -0.024768669535687654 0.03295193164827726
0.03711378817918738 0.05754087438514972 0.03908615141242601 -0.03169279273155177 -0.03655894228722717 -0.048605562739194086 0.02197063863124699 -0.047641934940365865
-0.03909270756230993 -0.012386585140355462 0.0030360046240582666 0.06561671821169526 0.006982091532112841 0.006741322998832168 0.047054425602560936 -0.05584472768240323
-0.007287096569177109 0.06285214571582766 -0.05997905231383448 -0.015263942852240657 0.03761792547607816 0.05206530486021069 0.02020359808594472 -0.024423278046214927
0.012525814999125272 -0.03178946561096813 0.0015683890453358636 0.0630528189572584 0.035055270655258 0.05364013268932023 0.01905681753712839 -0.02010226651149257
-0.03857027141141384 0.03183134815199069 0.033847793089982835 0.030540916091102783 -0.010663122110271981 0.014495978407892737 -0.05369902708621168 -0.0300943268478673
0.03416719623730717 -0.05538391390551757 0.00395150619238123 -0.03142243554830108 0.004355196065284994 0.05807673581750066 0.038885482898850854 0.014174633139944937
0.0655410706507937 0.06459300921520843 -0.017699794311352532 0.03856119478593061 0.038839194814373826 0.06202889262356747 0.028550698080607805 -0.01404449118565731
-0.05696737381864472 0.014872320691372459 -0.0225953109454793 0.03169030730712279 -0.034075237531347495 0.0703456080723088 -0.004984977453541387 -0.04601327394740852
0.01335269465076394 -0.0058543937068772645 -0.03298353181586606 0.0600735257677651 0.01286565480240777 -0.009294221745156487 0.06470934870569638 -0.048301947459857164
-0.025635815979699543 -0.029336091843166517 0.022053954941986465 0.054338120120332935 0.046252158391434525 -0.03172288009038809 0.015364365519433775 -0.04390360889761606
00000000: 76cf 39e1 38f2 a5bf 9b2c e81f d751 adbf
00000010: e1b8 3223 37f0 a23f 6b47 a566 dcc6 9d3f
00000020: 6c6f 2eef 6459 823f 8de5 b4b8 5894 a13f
00000030: 3fd6 b5b6 c86b a03f 256c 52e4 9776 6c3f
00000040: d9ef 689a b60f 54bf 7059 a1a7 2976 8f3f
00000050: 621d f1bc 3c1d 92bf e52e 1e99 09b5 a1bf
00000060: f963 7176 b5e8 a6bf 404c 95ee b628 aabf
00000070: 010b 6228 a994 acbf 448a 0339 d164 993f
00000080: 6bd4 44d8 cfbf 713f ce44 3579 aec0 96bf
00000090: 915e 7dc6 6433 9ebf 3cf8 3521 aa6f 8f3f
000000a0: cc7a f082 05d0 94bf fbdb b648 59ff 8ebf
000000b0: 4418 e289 d876 87bf 83f0 5487 7110 98bf
000000c0: fef3 d679 551e 8fbf 3cfd 65b4 9242 9f3f
000000d0: b232 1606 b976 a93f 1cac cc12 7203 ac3f
000000e0: 7f37 ca33 e2a2 8b3f 8301 07af 1113 9b3f
000000f0: e4d5 6df5 ec18 aa3f 33ce 547d c8d2 a5bf
00000100: 6b0e 64dc 6d75 6fbf 8589 415c 1bd3 92bf
00000110: 12aa 3ecc 9324 92bf 58f4 a313 44cd 923f
00000120: 3eb2 9893 78d1 8fbf afe0 2f07 ec91 963f
00000130: 7e79 2112 a167 a4bf e9e1 09dd 9dc6 a8bf
00000140: cf76 9ce0 11bc 8ebf 97d7 9caf 00fa a4bf
00000150: 5c11 183c 3601 a9bf 81ab cffe a929 97bf
00000160: 1575 d9ef 601d 673f 6ee4 2b1a d75a a63f
00000170: a208 d56d 1f04 9abf 68b9 962c 40f4 7e3f
00000180: 6692 f5a0 21c2 98bf f031 e714 2894 96bf
00000190: 7a11 0b5e ae0e 993f 6a7b 75f1 a69f 81bf
000001a0: e53e 261c 6d72 a83f 1520 9732 0de7 81bf
000001b0: c3e1 d6dd 587e a1bf 1a80 b401 fe48 afbf
000001c0: a5de cac7 dcd0 62bf 7b54 723a 035c 9cbf
000001d0: 823b d12d f030 a13f b9bf d46e 20e3 683f
000001e0: 69ec cbe8 5536 9bbf d07b 5d8e d9d7 aebf
000001f0: c772 3230 fc87 aabf 68f1 dce1 8b66 8cbf
00000200: c39b 2bbd 1e95 99bf 87de 8b1b 97a2 a8bf
00000210: 997f 2fa9 303e 923f 921d 1582 b6da 90bf
00000220: a9fe cf1d 5611 73bf eda3 2c24 adb2 81bf
00000230: 2c40 4946 0639 84bf e97e e18e 87ad 873f
00000240: 407e f171 9535 323f 2d9e 5d7e 7068 aabf
00000250: d802 8db3 670c ae3f b1e5 22c2 9540 8dbf
00000260: 09d0 9248 2e89 93bf 901c 7686 045c a0bf
00000270: 0b16 a2c1 e714 adbf 2f79 7f11 f652 b03f
00000280: d4b3 4e42 7344 a13f 6656 64c6 079c adbf
00000290: da01 e279 088a 94bf dbe9 b116 ea32 a3bf
000002a0: 621a d801 12e4 973f c698 1f3b 27a2 a13f
000002b0: 2875 afde e9e8 ac3f dc81 377e 1058 82bf
000002c0: be15 b85d bc95 5abf a8bb 15c6 ba57 aebf
000002d0: 24b7 7f10 9316 8a3f f1af 53fa ac28 a53f
000002e0: cf0e 711c 9c3c 86bf b37c 6556 b74d a9bf
000002f0: 43cc 60ed fcae a13f c89b 74de d8e1 aebf
00000300: b31e 8fd9 8ca4 a2bf e18a 8b30 8c53 87bf
00000310: 68db 2abc 12e2 973f ca52 1c11 81da a33f
00000320: b264 77a8 f934 a53f 1216 d674 de99 9dbf
00000330: 921e 9c76 9dd7 acbf 839d fe29 1906 acbf
00000340: 4160 2357 5dc1 afbf 5ead 3249 7aa9 763f
00000350: 95d4 7f16 19b9 8a3f cb7b 98b9 dc3a 9fbf
00000360: 92b2 a567 9031 73bf f25d 959a dfd9 953f
00000370: a332 c079 d907 a83f af99 f804 4863 bc3e
00000380: b766 3fb3 4820 b03f d495 0456 a0e0 a73f
00000390: f49c 3248 ccfb a3bf 236e 22c0 dc2c 72bf
000003a0: ac45 2930 6f0c 233f 9ba2 6c9b 510f a73f
000003b0: 62b8 6675 78b8 adbf be0a 4128 6a30 3a3f
000003c0: 690d eae1 0c0f a13f f072 0039 f5cd 96bf
000003d0: a242 02b0 7273 afbf 12a6 88ee c816 a13f
000003e0: f381 bf62 da4c b03f aecd d9ef 7090 b03f
000003f0: a06d eaea b5d0 a0bf c4fd 4b39 f732 aa3f
00000400: a95f 5a80 a349 71bf d32e 1274 a788 a5bf
00000410: d77c 25c3 843f ae3f 8b7d ffcd 2f2c a43f
00000420: 5171 e338 0e18 a0bf 8cd5 9807 2de5 7dbf
00000430: 8538 dc24 88e0 a7bf ee1f 54ae 7138 613f
00000440: 32ea d054 60d5 adbf 613c 7c9e 77a0 abbf
00000450: 85f0 a544 5f9b 93bf 16e2 8c01 7ef4 a6bf
00000460: 09e6 e131 5e36 af3f 2461 4eb4 75a6 aabf
00000470: f4b4 03c6 1e95 a2bf af5b de03 112c 9c3f
00000480: abb7 1c9e 4dd7 9bbf bd56 8827 18fb 603f
00000490: 439b 1d3a c6cb af3f 8aaa ea21 6c34 953f
000004a0: 0158 a9b3 bb39 9abf c784 6eb1 c717 773f
000004b0: 9da9 1f4b 4f97 963f 080d 51ef 78ef a03f
000004c0: 967c 5697 f2be a2bf 614f 1bae b0ff ab3f
000004d0: 0439 2039 c4df a93f a373 15bf e42a 71bf
000004e0: d88e 17b4 f5d8 a4bf 5dbf 5fce c91c aebf
000004f0: fbf1 ba84 1933 a4bf 812a 7554 f472 903f
00000500: a586 642f fbd1 97bf 0ec9 dbdf 1e09 9abf
00000510: 913f 6164 be25 aebf 0766 9323 97a3 a1bf
00000520: 2355 83c4 87cb 9bbf c458 660d d440 9c3f
00000530: 1632 9534 8ed1 a2bf 6966 8c63 0d7c ab3f
00000540: e1a3 264f 2b42 97bf f6b6 0f3d d35a a8bf
00000550: 2d20 aa1c 8721 7c3f e2ce db23 ff0c af3f
00000560: 471e 9f17 1df6 a7bf d258 3551 b322 abbf
00000570: 781e 7c46 f55c 99bf f1eb 8959 13df a03f
00000580: faa9 eb14 9400 a33f 9abd 555b ff75 ad3f
00000590: 92f3 159c 1903 a43f 5d12 9aa8 093a a0bf
000005a0: f8fe ff8a dab7 a2bf f8ad bc0c d4e2 a8bf
000005b0: f1e1 9299 787f 963f 245c f910 8664 a8bf
000005c0: 5903 fc98 f503 a4bf e410 b250 235e 89bf
000005d0: d347 4492 f6de 683f 9a42 cada 41cc b03f
000005e0: 1612 9cec 4099 7c3f b5f4 fc1c ca9c 7b3f
000005f0: 45ac 3086 8417 a83f c092 191e ae97 acbf
00000600: d996 2817 13d9 7dbf 5939 5506 1417 b03f
00000610: 8e17 4408 93b5 aebf c9f9 ddba b342 8fbf
00000620: 9684 531f a842 a33f 0402 43bb 4da8 aa3f
00000630: faa2 2984 40b0 943f e4e0 e071 6a02 99bf
00000640: 2c46 376e 22a7 893f e916 5076 b546 a0bf
00000650: 414a 0eea 4cb2 593f 848f 57c3 3a24 b03f
00000660: fa94 08b2 c3f2 a13f d2b5 4e2f b876 ab3f
00000670: bde9 5960 a183 933f 1627 f844 b095 94bf
00000680: c8a6 9e8c 7bbf a3bf bacc 99ce 324c a03f
00000690: 0bfc b978 7f54 a13f 0565 342f 1e46 9f3f
000006a0: 7f1d e505 8cd6 85bf 3ebe 7b49 11b0 8d3f
000006b0: a318 535a 707e abbf 4549 6d16 0cd1 9ebf
000006c0: e6d8 dedc 5c7e a13f 12b9 e5c5 475b acbf
000006d0: 5108 dc5d 742f 703f 45cc 14fa 9916 a0bf
000006e0: f366 b00a c1d6 713f d73b fde1 3bbc ad3f
000006f0: 50f1 ad4a cce8 a33f c0a0 260e 9707 8d3f
00000700: 9e6f fdb2 4cc7 b03f fb29 21de 2a89 b03f
00000710: 6c4d da16 e51f 92bf c721 00fd 4abe a33f
00000720: 02b9 0f1f bbe2 a33f df5c 7342 40c2 af3f
00000730: 3600 23ea 643c 9d3f 3d9f a6b2 5bc3 8cbf
00000740: 84ec fade d32a adbf c36b e117 6175 8e3f
00000750: 4413 37a6 3923 97bf d7f3 f742 b639 a03f
00000760: 37e4 993d 4f72 a1bf 0e7a 1676 2b02 b23f
00000770: 51eb 25b2 206b 74bf b26f 9245 0d8f a7bf
00000780: 3f42 b556 a858 8b3f a0a4 24d8 c6fa 77bf
00000790: 2954 e9ac 37e3 a0bf 5951 0e09 f5c1 ae3f
000007a0: 8898 f1f4 4e59 8a3f c26c 7f53 d908 83bf
000007b0: 9bb9 6fb8 ca90 b03f 40ad 5869 08bb a8bf
000007c0: 5ed2 f47c 4640 9abf d843 3ccc 470a 9ebf
000007d0: fda5 e4dc 4f95 963f 1597 afc1 34d2 ab3f
000007e0: 363d 52e7 5cae a73f d7d9 0b39 fb3d a0bf
000007f0: 0625 703b 5a77 8f3f 7684 c8a8 887a a6bf

linear.2.bias f8 [128]
0.038243648815870425 0.0019339970966261583 -0.01573901614885945 -0.009441733093748928 0.1326531778928098 0.11243011919754563 0.03937701127842002 -0.01622214111425995
0.012453599028843878 -0.039287912686675065 0.09844254002932094 0.2587778520439331 -0.021409486083972026 0.2499033386615163 0.11948071154208245 0.29293566882248967
-0.018902505842362072 0.02224896187555393 0.05783686295036461 -0.03434644629860652 -0.011905483508034621 0.2246905518397168 0.13558959571255996 -0.01696944052092001
0.13064471316738813 -0.0162208127772973 0.3960684331409907 -0.013191093565125088 -0.018248451248090512 -0.05098282458144496 0.029948875527146385 -0.016013894139064278
0.051293516969482034 -0.032680987504602764 0.26730252473400545 0.07432099875663209 0.11410869397090241 0.3005109430806441 0.3762876069515867 -0.023613011929440222
0.03792661314222359 0.18483646136288043 0.2743394233969082 -0.013438104545268222 0.006456427286905071 0.06926586924672326 -0.059570414104176156 0.007456703982094325
0.020242689793620736 0.017164261012601077 0.07066590760520956 -0.02467093806065178 0.05965980172431011 0.12147920787225483 0.1867343205787261 0.02280062264908221
-0.024478049853265797 0.18620166981038885 0.022385055027370256 -0.025045227485784943 0.040423301714781 0.05134449124732255 -0.05353892923071318 0.051380955562530244
-0.0339427079532285 0.01084333814203016 -0.05852304640062589 -0.06686690862127606 -0.014775894635969535 0.38662910511584175 0.009340012851360954 0.44679849462858773
0.20086742960002082 0.3359306580384798 0.3541580774653741 0.025879037877151383 0.014004538531652554 0.09933960321826954 -3.816572045059937e-05 0.015459526206461465
-0.04387349072765552 0.1838705282001157 0.016116360750984198 0.0012552925913965735 -0.056071115427274415 0.12944825741482668 -0.047429504470305826 0.054204847316755685
0.07827682155874784 0.027535042125050015 0.49649852923717347 0.36683141282041576 0.01371079961386768 0.2481009653453724 -0.04637672796459366 0.1377454932471695
0.09182459608228702 0.42907884721452727 -0.0409357303406331 -0.07555215650844672 0.007592018323172115 0.03883985684628872 -0.02865218252857591 0.12069982858877422
0.3276491529987477 -0.0010656832501545889 0.19228711444715832 0.026147662309228065 -0.022668643283225973 0.22384742075298666 0.29876280232539526 0.22169163820608262
-0.027291055909421238 -0.03497003504264226 0.06407024710045789 0.28884628724071354 0.11297641824194353 -0.06216805546689735 -0.0405989014023111 0.1574277764508039
0.06843988405321912 -0.02827832996477953 -0.0015734638027192216 0.10211918841368312 0.04342929327197883 0.002738533065744028 0.21376210204929885 0.10729031403242469
00000000: 4543 e3e9 ab94 a33f c0d4 f491 c5af 5f3f
00000010: 69b3 857e e31d 90bf ad79 d7f6 2f56 83bf
00000020: 934a 6182 c7fa c03f 6ff1 0965 38c8 bc3f
00000030: 0761 4f3f 3929 a43f 2e35 3a76 899c 90bf
00000040: 6efd 5ec4 4581 893f 4d18 3c98 8b1d a4bf
00000050: ef0a f6c1 8733 b93f ea4c ddfa d08f d03f
00000060: 8f24 384a 5eec 95bf bd30 5b25 d5fc cf3f
00000070: 4478 93b4 4996 be3f ae2a 5b3f 75bf d23f
00000080: 9d1f 9fb1 2d5b 93bf 4377 808e 6ec8 963f
00000090: 9006 c015 cb9c ad3f 2234 2c7f db95 a1bf
000000a0: 2709 7bf2 e661 88bf 5e96 eff5 a8c2 cc3f
000000b0: 0ab4 a1f7 ff5a c13f 4a6b 46e0 6f60 91bf
000000c0: 7480 3949 f7b8 c03f ad76 9251 309c 90bf
000000d0: 9862 d469 2f59 d93f 597d af9b ee03 8bbf
000000e0: 46b7 40d5 b8af 92bf 5c53 78b8 6b1a aabf
000000f0: 75a7 c303 ebaa 9e3f 1d80 6f3e f265 90bf
00000100: 30f1 c2d3 2443 aa3f 9b06 11f9 8fbb a0bf
00000110: efba 770c 7c1b d13f b6d7 1073 b306 b33f
00000120: 2157 cb34 3a36 bd3f 64c6 2740 923b d33f
00000130: 96d1 6f9d 1815 d83f 84ee fc67 022e 98bf
00000140: e412 30f6 1d6b a33f 6bba 549e b8a8 c73f
00000150: e290 dff0 c68e d13f de55 56dc 6f85 8bbf
00000160: 617a bd00 0e72 7a3f c6c8 2473 68bb b13f
00000170: 3cf2 c568 0380 aebf 1924 d3bb eb8a 7e3f
00000180: b931 96ea 7fba 943f 0926 d60e 8293 913f
00000190: bb45 1b32 2917 b23f fc4f 87a0 5643 99bf
000001a0: 1661 95c2 ba8b ae3f de8f f4e8 4219 bf3f
000001b0: 8d94 f603 e9e6 c73f 7ccb 6ce2 0b59 973f
000001c0: 11c9 5b1e c610 99bf 3bea 25d1 74d5 c73f
000001d0: 2fff 0b9d 1bec 963f 98a9 e3c3 74a5 99bf
000001e0: 9bff b8ed 5cb2 a43f 3159 793d d349 aa3f
000001f0: e7b0 375c 7469 abbf e77c 8ec7 9a4e aa3f
00000200: 2e8f 3149 f060 a1bf a88d 9835 0835 863f
00000210: a0b9 b494 bbf6 adbf 3e87 b691 301e b1bf
00000220: 0e55 d801 d342 8ebf d5df 8900 88be d83f
00000230: 6b30 ed4d db20 833f 793c 95b6 5898 dc3f
00000240: 9959 7b20 06b6 c93f 1df0 7f4d e37f d53f
00000250: 38fe 14a4 86aa d63f 7b55 56d5 0880 9a3f
00000260: 1983 e957 69ae 8c3f 3a24 05fb 516e b93f
00000270: abd2 572b 8402 04bf 234c bf7b 3ea9 8f3f
00000280: 0a5c ac0f 9676 a6bf cbab a8c8 1189 c73f
00000290: 3b8f 6ca9 ce80 903f 361a 2028 1491 543f
000002a0: 2451 056e 5ab5 acbf ac78 0fb0 c291 c03f
000002b0: 9382 2115 ae48 a8bf f130 05dd bcc0 ab3f
000002c0: b930 a124 f309 b43f 8a2d af65 2532 9c3f
000002d0: 177d 65c4 a1c6 df3f e462 4d76 2a7a d73f
000002e0: 036f 8c5f 6814 8c3f fcd7 21be c5c1 cf3f
000002f0: dc8c cec3 b0be a7bf 6e80 55f2 a4a1 c13f
00000300: 224f 2415 d181 b73f 0c46 0c20 0776 db3f
00000310: cb0e 1a2e 87f5 a4bf e196 58d9 6257 b3bf
00000320: eadb 89e6 ce18 7f3f a94c df55 d1e2 a33f
00000330: 7a51 ad6b ff56 9dbf 65ed 6b18 2fe6 be3f
00000340: 2b45 2c27 34f8 d43f be8c 44ad cc75 51bf
00000350: 9112 ff39 dd9c c83f 45a0 f0e9 73c6 9a3f
00000360: cc40 2fe6 7236 97bf abc9 b643 08a7 cc3f
00000370: bded 4f04 ee1e d33f 2426 f23f 6460 cc3f
00000380: 37c6 6ac2 2ff2 9bbf 1c3d b2a9 97e7 a1bf
00000390: 5c6f f15f e866 b03f d345 5123 757c d23f
000003a0: 6380 91c5 05ec bc3f 6727 2cca 7dd4 afbf
000003b0: 798b 8d13 61c9 a4bf 324a abe7 9726 c43f
000003c0: d927 c0b7 4685 b13f 4172 8999 fef4 9cbf
000003d0: 005d bee4 95c7 59bf 8ce4 87ae 7b24 ba3f
000003e0: fb44 9544 5d3c a63f 2cb5 9abe 1e6f 663f
000003f0: a285 b67a 8e5c cb3f b563 f2c5 6077 bb3f
